…
      channel_multiplier: [32, 64, 128, 256]
    ]
    diffusion:[
      loss_type: l1
    ]
  ]
  train:[
    val_freq: 5000
    save_checkpoint_freq: 5000
    print_freq: 50
    max_iter: 300000
    optimizer:[
      lr: 0.0002
      step_size: 50000
      gamma: 0.5
    ]
  ]
  log_eval: False

23-12-24 10:22:50.020 - INFO: Initial Dataset Finished
23-12-24 10:22:52.578 - INFO: Initialization method [kaiming]
23-12-24 10:22:52.874 - INFO: Network G structure: GeneralDiffusion, with parameters: 146,103,425
23-12-24 10:22:52.874 - INFO: GeneralDiffusion(
  (denoise_fn): AblabtionNet(
    (embed): Sequential(
      (0): Linear(in_features=32, out_features=256, bias=True)
      (1): LeakyReLU(negative_slope=0.01)
      (2): Linear(in_features=256, out_features=256, bias=True)
    )
    (embed2): Sequential(
      (0): Linear(in_features=768, out_features=1024, bias=True)
      (1): LeakyReLU(negative_slope=0.01)
      (2): Linear(in_features=1024, out_features=1024, bias=True)
      (3): LeakyReLU(negative_slope=0.01)
      (4): Linear(in_features=1024, out_features=256, bias=True)
    )
    (conv1): AdaptionModulate2(
      (conv20): Conv3d(1, 32, kernel_size=(1, 1, 1), stride=(1, 1, 1))
      (conv21): Conv3d(32, 32, kernel_size=(3, 3, 3), stride=(1, 1, 1), padding=(1, 0, 0))
      (act): LeakyReLU(negative_slope=0.01)
      (dense2): Dense(
        (dense): Linear(in_features=256, out_features=32, bias=True)
      )
    )
    (down1): ResblockDownOneModulate2(
      (down): Conv3d(32, 64, kernel_size=(3, 3, 3), stride=(1, 2, 2), padding=(1, 0, 0))
      (act): LeakyReLU(negative_slope=0.01)
      (conv20): ResBlockModulate2(
        (conv20): Conv3d(64, 64, kernel_size=(3, 3, 3), stride=(1, 1, 1), padding=(1, 1, 1))
        (conv21): Conv3d(64, 64, kernel_size=(3, 3, 3), stride=(1, 1, 1), padding=(1, 1, 1))
        (dense1): Dense(
          (dense): Linear(in_features=256, out_features=64, bias=True)
        )
        (dense2): Dense(
          (dense): Linear(in_features=256, out_features=64, bias=True)
        )
        (act): LeakyReLU(negative_slope=0.01)
      )
    )
    (down2): ResblockDownOneModulate2(
      (down): Conv3d(64, 128, kernel_size=(3, 3, 3), stride=(1, 2, 2), padding=(1, 0, 0))
      (act): LeakyReLU(negative_slope=0.01)
      (conv20): ResBlockModulate2(
        (conv20): Conv3d(128, 128, kernel_size=(3, 3, 3), stride=(1, 1, 1), padding=(1, 1, 1))
        (conv21): Conv3d(128, 128, kernel_size=(3, 3, 3), stride=(1, 1, 1), padding=(1, 1, 1))
        (dense1): Dense(
          (dense): Linear(in_features=256, out_features=128, bias=True)
        )
        (dense2): Dense(
          (dense): Linear(in_features=256, out_features=128, bias=True)
        )
        (act): LeakyReLU(negative_slope=0.01)
      )
    )
    (down3): ResblockDownOneModulate2(
      (down): Conv3d(128, 256, kernel_size=(3, 3, 3), stride=(1, 2, 2), padding=(1, 0, 0))
      (act): LeakyReLU(negative_slope=0.01)
      (conv20): ResBlockModulate2(
        (conv20): Conv3d(256, 256, kernel_size=(3, 3, 3), stride=(1, 1, 1), padding=(1, 1, 1))
        (conv21): Conv3d(256, 256, kernel_size=(3, 3, 3), stride=(1, 1, 1), padding=(1, 1, 1))
        (dense1): Dense(
          (dense): Linear(in_features=256, out_features=256, bias=True)
        )
        (dense2): Dense(
          (dense): Linear(in_features=256, out_features=256, bias=True)
        )
        (act): LeakyReLU(negative_slope=0.01)
      )
    )
    (conv1_1): AdaptionModulate2(
      (conv20): Conv3d(1, 32, kernel_size=(1, 1, 1), stride=(1, 1, 1))
      (conv21): Conv3d(32, 32, kernel_size=(3, 3, 3), stride=(1, 1, 1), padding=(1, 0, 0))
      (act): LeakyReLU(negative_slope=0.01)
      (dense2): Dense(
        (dense): Linear(in_features=256, out_features=32, bias=True)
      )
    )
    (down1_1): ResblockDownOneModulate2(
      (down): Conv3d(32, 64, kernel_size=(3, 3, 3), stride=(1, 2, 2), padding=(1, 0, 0))
      (act): LeakyReLU(negative_slope=0.01)
      (conv20): ResBlockModulate2(
        (conv20): Conv3d(64, 64, kernel_size=(3, 3, 3), stride=(1, 1, 1), padding=(1, 1, 1))
        (conv21): Conv3d(64, 64, kernel_size=(3, 3, 3), stride=(1, 1, 1), padding=(1, 1, 1))
        (dense1): Dense(
          (dense): Linear(in_features=256, out_features=64, bias=True)
        )
        (dense2): Dense(
          (dense): Linear(in_features=256, out_features=64, bias=True)
        )
        (act): LeakyReLU(negative_slope=0.01)
      )
    )
    (down2_1): ResblockDownOneModulate2(
      (down): Conv3d(64, 128, kernel_size=(3, 3, 3), stride=(1, 2, 2), padding=(1, 0, 0))
      (act): LeakyReLU(negative_slope=0.01)
      (conv20): ResBlockModulate2(
        (conv20): Conv3d(128, 128, kernel_size=(3, 3, 3), stride=(1, 1, 1), padding=(1, 1, 1))
        (conv21): Conv3d(128, 128, kernel_size=(3, 3, 3), stride=(1, 1, 1), padding=(1, 1, 1))
        (dense1): Dense(
          (dense): Linear(in_features=256, out_features=128, bias=True)
        )
        (dense2): Dense(
          (dense): Linear(in_features=256, out_features=128, bias=True)
        )
        (act): LeakyReLU(negative_slope=0.01)
      )
    )
    (down3_1): ResblockDownOneModulate2(
      (down): Conv3d(128, 256, kernel_size=(3, 3, 3), stride=(1, 2, 2), padding=(1, 0, 0))
      (act): LeakyReLU(negative_slope=0.01)
      (conv20): ResBlockModulate2(
        (conv20): Conv3d(256, 256, kernel_size=(3, 3, 3), stride=(1, 1, 1), padding=(1, 1, 1))
        (conv21): Conv3d(256, 256, kernel_size=(3, 3, 3), stride=(1, 1, 1), padding=(1, 1, 1))
        (dense1): Dense(
          (dense): Linear(in_features=256, out_features=256, bias=True)
        )
        (dense2): Dense(
          (dense): Linear(in_features=256, out_features=256, bias=True)
        )
        (act): LeakyReLU(negative_slope=0.01)
      )
    )
    (middle): ResBlockModulate2(
      (conv20): Conv3d(256, 256, kernel_size=(3, 3, 3), stride=(1, 1, 1), padding=(1, 1, 1))
      (conv21): Conv3d(256, 256, kernel_size=(3, 3, 3), stride=(1, 1, 1), padding=(1, 1, 1))
      (dense1): Dense(
        (dense): Linear(in_features=256, out_features=256, bias=True)
      )
      (dense2): Dense(
        (dense): Linear(in_features=256, out_features=256, bias=True)
      )
      (act): LeakyReLU(negative_slope=0.01)
    )
    (up1): ResblockUpOneModulate2(
      (up1): ConvTranspose3d(768, 128, kernel_size=(3, 3, 3), stride=(1, 2, 2), padding=(1, 0, 0), output_padding=(0, 1, 1))
      (act): LeakyReLU(negative_slope=0.01)
      (conv20): ResBlockModulate2(
        (conv20): Conv3d(128, 128, kernel_size=(3, 3, 3), stride=(1, 1, 1), padding=(1, 1, 1))
        (conv21): Conv3d(128, 128, kernel_size=(3, 3, 3), stride=(1, 1, 1), padding=(1, 1, 1))
        (dense1): Dense(
          (dense): Linear(in_features=256, out_features=128, bias=True)
        )
        (dense2): Dense(
          (dense): Linear(in_features=256, out_features=128, bias=True)
        )
        (act): LeakyReLU(negative_slope=0.01)
      )
    )
    (up2): ResblockUpOneModulate2(
      (up1): ConvTranspose3d(384, 64, kernel_size=(3, 3, 3), stride=(1, 2, 2), padding=(1, 0, 0), output_padding=(0, 1, 1))
      (act): LeakyReLU(negative_slope=0.01)
      (conv20): ResBlockModulate2(
        (conv20): Conv3d(64, 64, kernel_size=(3, 3, 3), stride=(1, 1, 1), padding=(1, 1, 1))
        (conv21): Conv3d(64, 64, kernel_size=(3, 3, 3), stride=(1, 1, 1), padding=(1, 1, 1))
        (dense1): Dense(
          (dense): Linear(in_features=256, out_features=64, bias=True)
        )
        (dense2): Dense(
          (dense): Linear(in_features=256, out_features=64, bias=True)
        )
        (act): LeakyReLU(negative_slope=0.01)
      )
    )
    (up3): ResblockUpOneModulate2(
      (up1): ConvTranspose3d(192, 32, kernel_size=(3, 3, 3), stride=(1, 2, 2), padding=(1, 0, 0), output_padding=(0, 1, 1))
      (act): LeakyReLU(negative_slope=0.01)
      (conv20): ResBlockModulate2(
        (conv20): Conv3d(32, 32, kernel_size=(3, 3, 3), stride=(1, 1, 1), padding=(1, 1, 1))
        (conv21): Conv3d(32, 32, kernel_size=(3, 3, 3), stride=(1, 1, 1), padding=(1, 1, 1))
        (dense1): Dense(
          (dense): Linear(in_features=256, out_features=32, bias=True)
        )
        (dense2): Dense(
          (dense): Linear(in_features=256, out_features=32, bias=True)
        )
        (act): LeakyReLU(negative_slope=0.01)
      )
    )
    (final1): ResblockUpOneModulate2(
      (up1): ConvTranspose3d(96, 32, kernel_size=(3, 3, 3), stride=(1, 1, 1), padding=(1, 0, 0))
      (act): LeakyReLU(negative_slope=0.01)
      (conv20): ResBlockModulate2(
        (conv20): Conv3d(32, 32, kernel_size=(3, 3, 3), stride=(1, 1, 1), padding=(1, 1, 1))
        (conv21): Conv3d(32, 32, kernel_size=(3, 3, 3), stride=(1, 1, 1), padding=(1, 1, 1))
        (dense1): Dense(
          (dense): Linear(in_features=256, out_features=32, bias=True)
        )
        (dense2): Dense(
          (dense): Linear(in_features=256, out_features=32, bias=True)
        )
        (act): LeakyReLU(negative_slope=0.01)
      )
    )
    (final2): FinalBlockModulate2(
      (conv20): ResBlockModulate3(
        (conv20): Conv3d(32, 32, kernel_size=(3, 3, 3), stride=(1, 1, 1), padding=(1, 1, 1))
        (conv21): Conv3d(32, 32, kernel_size=(3, 3, 3), stride=(1, 1, 1), padding=(1, 1, 1))
        (dense2): Dense(
          (dense): Linear(in_features=256, out_features=32, bias=True)
        )
        (act): LeakyReLU(negative_slope=0.01)
      )
      (conv21): ResBlockModulate3(
        (conv20): Conv3d(32, 32, kernel_size=(3, 3, 3), stride=(1, 1, 1), padding=(1, 1, 1))
        (conv21): Conv3d(32, 32, kernel_size=(3, 3, 3), stride=(1, 1, 1), padding=(1, 1, 1))
        (dense2): Dense(
          (dense): Linear(in_features=256, out_features=32, bias=True)
        )
        (act): LeakyReLU(negative_slope=0.01)
      )
      (final): Conv3d(32, 1, kernel_size=(1, 1, 1), stride=(1, 1, 1))
      (dense2): Dense(
        (dense): Linear(in_features=256, out_features=32, bias=True)
      )
      (act): LeakyReLU(negative_slope=0.01)
    )
    (clip_text_model): FrozenCLIPEmbedder(
      (transformer): CLIPTextModel(
        (text_model): CLIPTextTransformer(
          (embeddings): CLIPTextEmbeddings(
            (token_embedding): Embedding(49408, 768)
            (position_embedding): Embedding(77, 768)
          )
          (encoder): CLIPEncoder(
            (layers): ModuleList(
              (0-11): 12 x CLIPEncoderLayer(
                (self_attn): CLIPAttention(
                  (k_proj): Linear(in_features=768, out_features=768, bias=True)
                  (v_proj): Linear(in_features=768, out_features=768, bias=True)
                  (q_proj): Linear(in_features=768, out_features=768, bias=True)
                  (out_proj): Linear(in_features=768, out_features=768, bias=True)
                )
                (layer_norm1): LayerNorm((768,), eps=1e-05, elementwise_affine=True)
                (mlp): CLIPMLP(
                  (activation_fn): QuickGELUActivation()
                  (fc1): Linear(in_features=768, out_features=3072, bias=True)
                  (fc2): Linear(in_features=3072, out_features=768, bias=True)
                )
                (layer_norm2): LayerNorm((768,), eps=1e-05, elementwise_affine=True)
              )
            )
          )
          (final_layer_norm): LayerNorm((768,), eps=1e-05, elementwise_affine=True)
        )
      )
    )
    (act): LeakyReLU(negative_slope=0.01)
  )
  (loss_func): L1Loss()
)
23-12-24 10:22:52.875 - INFO: Model [DDPM] is created.
23-12-24 10:22:52.875 - INFO: Initial Model Finished
23-12-24 10:24:19.153 - INFO: {'l_pix': '0.0201896', 'lr': '0.0002'}
23-12-24 10:24:19.208 - INFO: Note: NumExpr detected 48 cores but "NUMEXPR_MAX_THREADS" not set, so enforcing safe limit of 8.
…
